public/models/suicide_detection_model.onnx (onnx, 641950 bytes, 4 tensors)

embedding.weight f4 [10000, 16]
0.9532661 -0.017402412 0.55725104 1.3458666 1.5975711 -0.7455909 1.4162714 0.98241395
0.57558566 0.73245114 -0.33026746 0.0027230764 0.31173906 0.5528154 -0.38792643 -0.71444994
-2.4231942 1.411085 -0.71122485 1.2506455 1.3324045 -0.38971084 0.19826996 -0.4768282
-1.0683293 -3.9791718 0.77238953 0.07930772 -1.088929 0.008282697 -1.2704471 -0.081601165
-0.09105977 -0.2568785 -0.030577984 0.8790507 -1.1470683 0.1750442 -0.13596822 0.535544
-0.40278628 -0.029524015 0.0058297766 1.3789057 -1.6013426 -1.0222746 1.5404489 0.31004795
0.17962305 0.85365033 -0.61816716 -0.123882204 -1.1019269 -0.5322387 0.30516037 0.3339457
0.097671114 0.64734644 -2.256855 -0.9466301 0.24441175 0.6924002 -0.7090244 -0.57212335
-0.13520862 -0.88281953 1.1095209 -0.8403765 0.6324585 1.7318308 0.14113538 -0.0388071
0.46265414 -0.4248238 0.9173675 -1.5277331 -0.36383858 -0.06570859 0.3634764 0.18552236
0.2170242 2.055802 1.5836681 0.18398035 1.49105 0.70625556 -0.7284713 0.8136707
-0.94084924 -1.574498 -1.1439751 -0.3720514 0.33912283 0.38403603 0.11039283 -0.30353868
-0.7316989 -0.18263493 -1.2299914 -2.1211174 -0.45150757 -0.18732208 -1.1370226 -0.43870407
-1.1844076 -1.4353304 1.2485178 -0.3816229 0.0029498376 1.5074139 1.1446993 -1.262788
-0.5728907 0.87706727 -0.09604788 0.3348331 2.0452633 0.65717894 0.8864518 -0.120416574
0.47135216 -0.10006263 -1.0940441 0.025176007 -0.1417451 -1.0993071 0.82164633 -0.6208628
-0.52786237 -1.2762834 -1.0849246 1.2451432 -2.802331 -0.06623419 1.4348112 1.4532082
0.044230904 0.68807197 -0.19997768 -0.27407303 -0.7011103 0.27528536 0.44362575 0.6746988
0.71558946 -1.0893989 0.8605552 -1.9036599 -1.4460024 -1.5278927 1.0537031 -1.044186
-0.9088469 -1.9435253 -0.23698829 0.57660145 -0.28989404 0.5905331 -1.429623 1.3210179
-1.7308125 0.08825464 0.4013454 1.6170766 2.6567185 -0.9211575 -0.38788834 1.5944136
0.8813904 1.4901284 -0.19558701 1.574918 0.25633925 1.3473496 0.9524358 -0.40584877
0.50669706 1.3851391 -0.789809 -1.0233272 -0.7639829 1.2843703 -0.40838823 -0.78927445
-0.452126 -1.4030955 0.5828435 -0.27726904 -0.81084096 -0.26714706 -0.54335743 1.228173
0.7447198 0.74295795 -1.0914189 0.37473056 -1.6522077 0.86624426 0.86486214 -0.74627304
-0.7052066 -2.2956574 0.74057364 0.60875005 1.6816814 -1.1986598 0.7276702 -1.3550277
-0.06999073 -0.99667305 1.5150782 0.7738149 0.4601271 -0.87480175 -1.1210464 0.38623276
-0.9499867 0.3919848 -1.1621755 0.48202592 1.3176101 0.8348237 0.63472664 -0.47709566
1.3844723 -0.44953513 1.0123609 -0.14172201 0.045286667 -0.36616945 -1.87342 0.18664019
0.12053225 0.22196656 0.9760721 0.044170853 0.4283185 0.12887156 -0.51167125 0.5410265
0.102595955 1.7697805 0.23520745 0.13523796 1.6918443 -1.1220621 -0.35286766 0.63428736
0.15722981 -0.34879494 -0.25122568 -0.38161504 -0.76780874 0.54605484 -0.58851916 -1.2537099
00000000: 3f09 743f 818f 8ebc 01a8 0e3f 5b45 ac3f
00000010: 367d cc3f 0cdf 3ebf 6248 b53f 7b7f 7b3f
00000020: 9559 133f eb81 3b3f d118 a9be a475 323b
00000030: 439c 9f3e 4f85 0d3f 4b9e c6be 31e6 36bf
00000040: 9d15 1bc0 6f9e b43f d512 36bf 2715 a03f
00000050: 3b8c aa3f 2e88 c7be 4807 4b3e d322 f4be
00000060: 04bf 88bf c0aa 7ec0 52bb 453f 166c a23d
00000070: 0762 8bbf 26b4 073c 039e a2bf 831e a7bd
00000080: 8b7d babd 9485 83be ae7e fabc 7709 613f
00000090: 22d3 92bf c93e 333e 413b 0bbe 6919 093f
000000a0: 013a cebe 59dc f1bc b607 bf3b fb7f b03f
000000b0: cbf8 ccbf e5d9 82bf 6e2d c53f 9bbe 9e3e
000000c0: 1bef 373e d488 5a3f 3440 1ebf f4b5 fdbd
000000d0: f10b 8dbf cc40 08bf fb3d 9c3e eefa aa3e
000000e0: cb07 c83d 7fb8 253f 5070 10c0 5a56 72bf
000000f0: 1347 7a3e 2441 313f a082 35bf ad76 12bf
00000100: 2174 0abe 7600 62bf c804 8e3f ea22 57bf
00000110: cde8 213f a2ac dd3f cb85 103e 32f4 1ebd
00000120: 01e1 ec3e 8182 d9be 99d8 6a3f c28c c3bf
00000130: 0d49 babe 3a92 86bd 9419 ba3e 93f9 3d3e
00000140: 983b 5e3e 4392 0340 a3b5 ca3f 5865 3c3e
00000150: bada be3f 2acd 343f 187d 3abf b94c 503f
00000160: 7fdb 70bf 2789 c9bf c76d 92bf 857d bebe
00000170: 82a1 ad3e 5fa0 c43e a315 e23d 6c69 9bbe
00000180: 9e50 3bbf a704 3bbe 5c70 9dbf 63c0 07c0
00000190: 002c e7be 5cd1 3fbe f589 91bf d29d e0be
000001a0: ab9a 97bf e8b8 b7bf 6ecf 9f3f 1464 c3be
000001b0: 1052 413b f0f2 c03f 8285 923f 0aa3 a1bf
000001c0: f7a8 12bf 7b87 603f c0b4 c4bd 3e6f ab3e
000001d0: 98e5 0240 e13c 283f 81ee 623f f79c f6bd
000001e0: 1255 f13e a3ed ccbd a309 8cbf ea3d ce3c
000001f0: a125 11be 18b6 8cbf 6a57 523f ddf0 1ebf
00000200: fd21 07bf 415d a3bf cfde 8abf da60 9f3f
00000210: 6459 33c0 caa5 87bd e5a7 b73f ba02 ba3f
00000220: 772b 353d 7c25 303f f3c6 4cbe 4d53 8cbe
00000230: f77b 33bf 34f2 8c3e ea22 e33e 10b9 2c3f
00000240: df30 373f 6c71 8bbf 584d 5c3f 21ab f3bf
00000250: 9b16 b9bf fd91 c3bf bedf 863f e3a7 85bf
00000260: 31aa 68bf 70c5 f8bf 0fad 72be 279c 133f
00000270: fe6c 94be 2d2d 173f e3fd b6bf 1d17 a93f
00000280: 448b ddbf d9be b43d 257d cd3e 5efc ce3f
00000290: ad07 2a40 fad0 6bbf 4d99 c6be bf15 cc3f
000002a0: cda2 613f 87bc be3f f647 48be ea96 c93f
000002b0: e63e 833e f475 ac3f d5d2 733f 69cb cfbe
000002c0: e6b6 013f 3d4c b13f ec30 4abf 63fc 82bf
000002d0: 6294 43bf 3f66 a43f 4318 d1be e40d 4abf
000002e0: 0f7d e7be a298 b3bf 3b35 153f 35f6 8dbe
000002f0: 4693 4fbf 80c7 88be 7919 0bbf c634 9d3f
00000300: f5a5 3e3f 7e32 3e3f 9db3 8bbf afdc bf3e
00000310: 8b7b d3bf 2fc2 5d3f 9b67 5d3f c00b 3fbf
00000320: 6b88 34bf 0dec 12c0 3c96 3d3f 0bd7 1b3f
00000330: 5641 d73f af6d 99bf 9848 3a3f 8c71 adbf
00000340: 4d57 8fbd f725 7fbf 15ee c13f bc18 463f
00000350: c795 eb3e 02f3 5fbf 737e 8fbf 4dc0 c53e
00000360: 5432 73bf 3bb2 c83e 2bc2 94bf 1acc f63e
00000370: 73a7 a83f 02b7 553f 727d 223f e245 f4be
00000380: 6336 b13f 7829 e6be 0b95 813f 931f 11be
00000390: 837e 393d 907a bbbe 3acc efbf 9b1e 3f3e
000003a0: 9dd9 f63d 344b 633e dcdf 793f 7fec 343d
000003b0: 904c db3e e8f6 033e e3fc 02bf b680 0a3f
000003c0: d41d d23d 2b88 e23f 39da 703e d27b 0a3e
000003d0: 5b8e d83f bb9f 8fbf 12ab b4be a860 223f
000003e0: da00 213e 4095 b2be a7a0 80be 0c63 c3be
000003f0: 1d8f 44bf 40ca 0b3f 31a9 16bf 9179 a0bf

fc1.weight f4 [16, 16]
-0.8447237 -0.32880944 0.21980186 -0.25622103 0.43191248 0.27855802 0.11938696 0.24717964
-0.40162385 0.34100842 -0.05805995 -0.6200074 0.5840921 -0.43553454 1.2017757 -0.2909315
0.047102436 0.061950862 0.8752651 0.16674706 -0.055725865 -0.18091607 0.39543515 -0.7421125
0.40211317 -0.1925643 0.91967005 -0.30620056 1.2081636 0.7546532 0.95544165 0.21929482
-0.63968444 -0.8678885 -0.2949275 -0.98355585 0.049995344 0.27996075 -0.38805428 -0.42302373
-0.21095484 0.35911396 0.67757577 -0.20954806 0.7105399 -0.83534545 0.060574718 0.115931846
0.27659348 -0.98400986 -0.68440014 -0.24973625 0.59123904 0.7782703 -0.2833673 0.6939635
-0.47048408 0.5021693 -1.1130943 1.5386697 -0.7828227 -1.1135495 -0.3945415 -0.78963256
0.32205918 -0.726254 -0.432699 -0.43180284 0.49573535 0.81940144 -0.0741222 0.6846952
-0.86436737 -0.16202295 -0.87002754 0.7637679 -0.8307644 -0.7652157 -0.7022524 -0.68792504
0.39116806 -2.219359 -0.3990168 -0.059071045 0.48684677 0.5609855 -0.056886606 0.7303696
-0.23395427 1.2266483 -0.87681764 3.3317544 -0.19118105 -1.0694723 -0.12602149 -0.40069422
-0.023011269 0.26388025 0.45818445 0.7379965 -0.20991285 -0.65689206 0.7376384 0.03393232
0.25516456 0.21718028 0.13106604 0.044133604 0.16948166 0.20454685 -0.12012492 -0.072201826
0.31116703 -0.4632836 -0.40416813 -0.61794573 0.56778336 0.60693824 -0.37605646 0.55889434
-0.8181553 -0.5713715 -0.66666245 0.42972055 -0.8313783 -0.6233644 -0.86241055 -0.7993844
-0.10775773 0.45622858 0.56816554 0.03156065 -0.19160432 -0.52664095 0.44239464 -0.31434146
0.55150616 0.013701476 0.9897034 -1.3847182 0.5107402 0.71022147 0.922721 0.18807131
-1.874039 0.2793676 0.53713936 -0.4973081 -1.2211385 0.9201108 -2.24332 0.27321804
-0.5697596 -0.02978221 0.11384567 0.5041534 -0.517841 -1.0650747 -0.2874868 -0.029214239
0.015582793 0.5544699 0.015463277 0.56900036 -0.07389858 -0.35899282 0.6115959 -0.35208178
0.6463609 0.18680999 0.4027627 -0.08121696 0.5209263 0.6440676 0.5327369 0.36228514
-0.71521 0.3721617 -0.82235235 0.6703078 0.20458058 -0.04330986 0.26416686 0.12679797
-0.19463144 -0.06322719 -0.28219458 0.6593031 -0.23363759 -0.12979771 0.393499 0.43381202
-0.38561094 0.8057715 0.50098896 0.4579438 -0.17375353 -0.5029842 0.45152345 -0.57665074
0.36083215 -0.20462455 0.5395064 -0.84822476 0.53086954 0.48290145 1.0458663 0.42888537
0.35136792 -1.2283591 0.21910313 -0.6288184 -0.3727486 -0.12252587 -0.026024256 -0.52896625
-0.14082047 0.20792209 0.44707087 0.09849408 0.274434 -0.38967612 -0.37188756 0.1807981
-0.64657706 1.0220368 0.74090505 0.50788844 -0.2375536 -0.36794466 0.48219487 -0.4832127
0.25562674 -0.110480055 0.78950155 -0.43512902 0.47603935 0.53563666 0.857117 0.37056255
-0.36089805 0.29280758 0.57515395 0.75932527 -0.12499854 -0.22731899 0.740161 -0.11963832
0.82408786 0.032487683 0.22272521 0.321829 0.2885892 0.6825106 0.09262103 0.47212
00000000: d03f 58bf b659 a8be bd13 613e 672f 83be
00000010: a223 dd3e 289f 8e3e 2781 f43d a91c 7d3e
00000020: a4a1 cdbe a898 ae3e 45d0 6dbd ceb8 1ebf
00000030: 0f87 153f 62fe debe c9d3 993f f9f4 94be
00000040: 7cee 403d 30c0 7d3d 6011 603f bebf 2a3e
00000050: ce40 64bd 1042 39be 7a76 ca3e 16fb 3dbf
00000060: c7e1 cd3e 932f 45be 7f6f 6b3f 52c6 9cbe
00000070: 1ba5 9a3f f430 413f d397 743f d28e 603e
00000080: 5cc2 23bf f12d 5ebf bd00 97be 51ca 7bbf
00000090: ebc7 4c3d 0457 8f3e 0daf c6be 9196 d8be
000000a0: 8c04 58be c9dd b73e 9b75 2d3f c493 56be
000000b0: f1e5 353f 33d9 55bf 321d 783d ad6d ed3d
000000c0: a99d 8d3e 12e8 7bbf d934 2fbf dcba 7fbe
000000d0: 715b 173f b93c 473f 8515 91be 98a7 313f
000000e0: 4ae3 f0be 2b8e 003f e079 8ebf 21f3 c43f
000000f0: 1267 48bf ca88 8ebf 5801 cabe 5c25 4abf
00000100: f1e4 a43e c8eb 39bf b98a ddbe 4315 ddbe
00000110: 06d1 fd3e 4bc4 513f 61cd 97bd 2f48 2f3f
00000120: 2e47 5dbf 58e9 25be 20ba 5ebf 4b86 433f
00000130: faac 54bf 2de5 43bf d0c6 33bf db1b 30bf
00000140: 2e47 c83e fa09 0ec0 ee4b ccbe 7bf4 71bd
00000150: fb43 f93e bf9c 0f3f ee01 69bd 81f9 3a3f
00000160: b591 6fbe d002 9d3f 1f77 60bf 773b 5540
00000170: f7c4 43be 78e4 88bf c70b 01be cb27 cdbe
00000180: 2182 bcbc 501b 873e 2797 ea3e 57ed 3c3f
00000190: 65f3 56be 142a 28bf dfd5 3c3f 9efc 0a3d
000001a0: eea4 823e 8264 5e3e 2d36 063e 70c5 343d
000001b0: 9a8c 2d3e bb74 513e 0e04 f6bd 8dde 93bd
000001c0: 4951 9f3e 8233 edbe 20ef cebe b131 1ebf
000001d0: 405a 113f 4e60 1b3f 798a c0be b313 0f3f
000001e0: a072 51bf 6745 12bf 64aa 2abf 5504 dc3e
000001f0: 35d5 54bf cf94 1fbf f0c6 5cbf 75a4 4cbf
00000200: 16b0 dcbd cb96 e93e 4c73 113f bd45 013d
00000210: ec33 44be f1d1 06bf 8d81 e23e 5df1 a0be
00000220: 822f 0d3f 287c 603c 345d 7d3f 723e b1bf
00000230: dfbf 023f 13d1 353f 7237 6c3f c495 403e
00000240: 83e0 efbf 4509 8f3e f781 093f 2b9f febe
00000250: 444e 9cbf 628c 6b3f 8e92 0fc0 3ce3 8b3e
00000260: c4db 11bf d2f9 f3bc eb27 e93d 3210 013f
00000270: 3a91 04bf 5e54 88bf 7831 93be b352 efbc
00000280: f94e 7f3c bdf1 0d3f af59 7d3c 02aa 113f
00000290: 2458 97bd e8cd b7be 8d91 1c3f 1044 b4be
000002a0: e877 253f 1e4b 3f3e ea36 ce3e 1455 a6bd
000002b0: 6d5b 053f 9de1 243f 7261 083f 707d b93e
000002c0: 0118 37bf fa8b be3e af85 52bf 4b99 2b3f
000002d0: 927d 513e ae65 31bd e140 873e 54d7 013e
000002e0: 774d 47be 427d 81bd cf7b 90be 17c8 283f
000002f0: b13e 6fbe b1e9 04be b378 c93e 9c1c de3e
00000300: cc6e c5be 0b47 4e3f d040 003f 9c77 ea3e
00000310: 72ec 31be 93c3 00bf 152e e73e 629f 13bf
00000320: febe b83e 1989 51be 171d 0a3f 4225 59bf
00000330: 11e7 073f dc3e f73e f2de 853f dd96 db3e
00000340: 7fe6 b33e df3a 9dbf 925c 603e 3efa 20bf
00000350: e8d8 bebe d8ee fabd d230 d5bc 556a 07bf
00000360: 3e33 10be 87e9 543e 79e6 e43e 44b7 c93d
00000370: 9d82 8c3e a183 c7be 0c68 bebe 2323 393e
00000380: 1386 25bf 1ad2 823f f4ab 3d3f fa04 023f
00000390: 4041 73be 3e63 bcbe 3fe2 f63e a867 f7be
000003a0: 82e1 823e 5e43 e2bd c61c 4a3f 3bc9 debe
000003b0: 6ebb f33e 7c1f 093f 056c 5b3f 60ba bd3e
000003c0: a1c7 b8be e0ea 953e 4a3d 133f 2463 423f
000003d0: 3cff ffbd 4fc6 68be 317b 3d3f ef04 f5bd
000003e0: 6cf7 523f ce11 053d 1412 643e c5c6 a43e
000003f0: f7c1 933e 04b9 2e3f 18b0 bd3d b6b9 f13e

fc1.bias f4 [16]
-0.054935694 -0.3098436 0.21801841 0.05297503 0.16256793 -0.6741956 0.020647459 0.43639675
-0.36813706 0.043304134 0.23655018 -0.21839596 -0.041157853 -0.094683155 -0.015064407 0.24531867
00000000: 4004 61bd d2a3 9ebe 3840 5f3e 58fc 583d
00000010: 3578 263e 1598 2cbf dc24 a93c 656f df3e
00000020: 767c bcbe ad5f 313d 363a 723e 31a3 5fbe
00000030: 2395 28bd 3ee9 c1bd b4d0 76bc d134 7b3e

fc2.weight f4 [1, 16]
-0.84261703 -2.0663526 -1.0607651 1.7003003 1.1405755 2.4347277 -0.512129 1.1869311
-0.7633784 -2.440406 -0.23677781 -0.36291626 -1.5186045 -0.9161118 -1.7252406 -0.5766075
00000000: c0b5 57bf 1f3f 04c0 27c7 87bf 71a3 d93f
00000010: 61fe 913f 94d2 1b40 e31a 03bf 5ced 973f
00000020: c46c 43bf 9d2f 1cc0 e275 72be 29d0 b9be
00000030: a261 c2bf 4e86 6abf afd4 dcbf 8d9c 13bf
